saved_models/cnn_best.pth (torch, 161004 bytes, 20 tensors)

conv1.weight f4 [32, 1, 8, 7]
0.1133046 0.0064004646 0.07062842 -0.009189902 -0.073607616 -0.1148059 -0.03375256 0.08981891
-0.039205253 -0.07286693 0.034873422 0.037060782 -0.05749938 0.17116234 -0.0065314732 0.008024229
-0.106006 -0.1112055 0.06591266 -0.09300735 -0.14485283 -0.025357472 -0.082933195 0.12639368
-0.10195319 0.009320898 -0.08595759 -0.02474855 -0.0126742385 0.07835966 0.005532801 0.086241744
-0.046084043 -0.081571765 -0.07469624 -0.095603615 0.0977839 0.034365196 0.09080625 -0.07109187
-0.03629363 0.08101508 0.10070086 -0.11122543 -0.073125444 0.11732755 -0.12213837 -0.10408784
-0.100952126 0.12835394 0.09478637 0.091861926 -0.07431043 0.113659434 -0.05867856 0.021748425
-0.07991083 0.04189489 -0.035939813 -0.117063254 -0.013837113 0.08694106 0.10718534 -0.08030349
-0.03488068 0.09342602 -0.10496612 0.07276975 -0.0875313 0.09413266 0.10032242 0.07050502
-0.03077583 0.018029181 -0.039712597 -0.069444485 0.09046091 -0.11852649 0.00061882345 0.03612716
0.058051866 -0.04818608 -0.10685581 -0.11861465 0.10061607 -0.117401846 0.03377492 -0.05434478
-0.1296196 -0.014211503 0.099128485 0.08769253 0.07077584 0.060172923 -0.014523639 0.14140868
0.051662907 0.08869558 -0.0966772 0.061783344 -0.12882507 0.010861743 -0.05639312 0.12569372
0.05435155 -0.09037406 0.10138739 -0.092521 -0.03635811 0.086430974 0.10602685 0.12923786
0.0968481 0.011610148 -0.08199541 -0.15142533 -0.12504894 -0.06709728 0.07758313 0.08902826
0.033663567 0.010435185 0.08994464 0.099277385 0.07464272 -0.112362616 0.009547216 -0.08572982
-0.051000338 0.018474277 -0.0044528367 -0.062162813 0.013693528 -0.12586494 -0.04384462 0.072056435
0.072414376 -0.085472964 -0.041671827 -0.07319546 0.13201077 0.049884744 -0.04862852 -0.1040045
-0.040848624 0.11966568 -0.05724063 -0.09627663 -0.03699311 0.106594495 0.023583012 0.11941792
-0.0742026 0.118884705 0.13983767 -0.03857629 0.110873364 -0.08215607 0.09168964 0.07467131
-0.10641275 0.05088236 -0.11537666 0.07610991 -0.04340313 0.041532867 0.052819967 0.07139114
0.0803112 -0.12824884 0.05949602 -0.031624574 0.09478628 0.061734945 0.028493274 0.10811384
-0.077580445 0.008187412 -0.097389214 -0.07622027 -0.03766655 -0.10222856 0.09709524 -0.11223026
-0.048481166 0.07008778 -0.0486646 -0.08342665 0.066373885 -0.089625835 -0.06478195 -0.04530943
0.018109556 0.082319744 -0.014730556 -0.1226822 0.040196706 -0.08958943 -0.074999824 0.021691917
0.07005129 0.024601819 -0.06373322 0.07043305 0.04365337 0.12633269 0.1505519 0.1512107
-0.0061443397 0.1287429 0.13499397 -0.03844714 -0.01968747 -0.12273161 0.039085966 0.019426053
0.12628289 0.10359896 -0.058429155 0.12575181 -0.026789114 0.09083621 -0.08777977 -0.044123057
0.08529091 0.03848144 -0.06500008 -0.114500865 0.0018039697 -0.04131715 0.022773061 0.11347069
0.12478583 -0.042088117 0.07981999 -0.06800265 -0.07296349 0.071163036 -0.096976615 -0.021208372
-0.097418256 -0.11250454 -0.08548433 -0.040463306 0.0674289 0.04472545 -0.09917271 -0.13076264
0.09193204 -0.105155565 -0.10768962 0.015120081 -0.030356277 0.06525801 0.093284376 -0.057853125
00000000: 3e0c e83d fdba d13b a2a5 903d 3e91 16bc
00000010: 97bf 96bd 5b1f ebbd 2040 0abd faf2 b73d
00000020: b095 20bd 423b 95bd 6fd7 0e3d 0ccd 173d
00000030: 7884 6bbd 2e45 2f3e f805 d6bb 0e78 033c
00000040: ac19 d9bd b6bf e3bd 37fd 863d a37a bebd
00000050: 4d54 14be 79ba cfbc e1d8 a9bd 586d 013e
00000060: d6cc d0bd aeb6 183c 880a b0bd 79bd cabc
00000070: 9ca7 4fbc 087b a03d 804c b53b 839f b03d
00000080: 9fc2 3cbd 190f a7bd 58fa 98bd d4cb c3bd
00000090: ed42 c83d 85c2 0c3d a1f8 b93d 9d98 91bd
000000a0: a1a8 14bd 3ceb a53d 413c ce3d 29ca e3bd
000000b0: cbc2 95bd 6d49 f03d af23 fabd 012c d5bd
000000c0: fdbf cebd 376f 033e 5b1f c23d 1b22 bc3d
000000d0: 1130 98bd 47c6 e83d ee58 70bd c129 b23c
000000e0: 4aa8 a3bd fa99 2b3d a035 13bd dcbe efbd
000000f0: 0fb5 62bc 280e b23d fd83 db3d 2876 a4bd
00000100: 0bdf 0ebd 2456 bf3d 7af8 d6bd 4f08 953d
00000110: 9c43 b3bd a0c8 c03d d775 cd3d f064 903d
00000120: 981d fcbc efb1 933c ada9 22bd e938 8ebd
00000130: 9243 b93d 04be f2bd 8a38 223a 13fa 133d
00000140: cbc7 6d3d c45e 45bd 38d7 dabd 3dec f2bd
00000150: cc0f ce3d 6170 f0bd 9257 0a3d a298 5ebd
00000160: 00bb 04be 5dd7 68bc e003 cb3d 2498 b33d
00000170: ecf2 903d e277 763d 8ff4 6dbc 70cd 103e
00000180: 7c9c 533d 07a6 b53d b2fe c5bd 8810 7d3d
00000190: b8ea 03be 74f5 313c 79fc 66bd dbb5 003e
000001a0: bb9f 5e3d 0916 b9bd 31a4 cf3d a67b bdbd
000001b0: 3eec 14bd b902 b13d 9b24 d93d ee56 043e
000001c0: 4c58 c63d 7d38 3e3c 36ed a7bd 3e0f 1bbe
000001d0: d40c 00be 4c6a 89bd e7e3 9e3d 7354 b63d
000001e0: cfe2 093d 57f8 2a3c e534 b83d f151 cb3d
000001f0: 48de 983d 5f1e e6bd ed6b 1c3c 1e93 afbd
00000200: bbe5 50bd 5e57 973c 1ae9 91bb 6f9e 7ebd
00000210: d25a 603c bde2 00be 6b96 33bd 5392 933d
00000220: fd4d 943d 730c afbd 14b0 2abd 80e7 95bd
00000230: d52d 073e f253 4c3d b32e 47bd 5000 d5bd
00000240: e350 27bd 4813 f53d 2775 6abd af2c c5bd
00000250: 1686 17bd 374e da3d 2931 c13c 6291 f43d
00000260: 88f7 97bd d379 f33d 9b31 0f3e 2c02 1ebd
00000270: 9311 e33d 7141 a8bd c7c7 bb3d 46ed 983d
00000280: eeee d9bd 066a 503d 994a ecbd 83df 9b3d
00000290: 7bc7 31bd 5e1e 2a3d c059 583d 8535 923d
000002a0: 337a a43d aa53 03be 19b2 733d c588 01bd
000002b0: 4f1f c23d c8dd 7c3d ba6a e93c ca6a dd3d
000002c0: 7fe2 9ebd 7f24 063c ff73 c7bd 5f19 9cbd
000002d0: 3e48 1abd 355d d1bd dfd9 c63d fbd8 e5bd
000002e0: 3094 46bd 2f8a 8f3d 8854 47bd 97db aabd
000002f0: 08ef 873d c08d b7bd 66ac 84bd 6296 39bd
00000300: 7e5a 943c 4197 a83d 6e58 71bc ce40 fbbd
00000310: 4da5 243d aa7a b7bd 8299 99bd 3fb3 b13c
00000320: 0d77 8f3d c189 c93c 9086 82bd 343f 903d
00000330: e0cd 323d 5b5d 013e 472a 1a3e fad6 1a3e
00000340: 7556 c9bb 2ed5 033e dc3b 0a3e c07a 1dbd
00000350: 9e47 a1bc b65a fbbd 9b18 203d 6323 9f3c
00000360: 4d50 013e b12b d43d 6953 6fbd 15c5 003e
00000370: d874 dbbc 5608 ba3d e1c5 b3bd 61ba 34bd
00000380: 00ad ae3d b79e 1d3d c31e 85bd 6e7f eabd
00000390: 2e73 ec3a 2c3c 29bd 928e ba3c 5263 e83d
000003a0: b78f ff3d 9764 2cbd aa78 a33d f944 8bbd
000003b0: e26d 95bd edbd 913d ad9b c6bd 2ebd adbc
000003c0: 3983 c7bd c868 e6bd 6912 afbd dabc 25bd
000003d0: 2a18 8a3d 0932 373d 101b cbbd a4e6 05be
000003e0: de46 bc3d cd5b d7bd 608c dcbd 37ba 773c
000003f0: baad f8bc fea5 853d e10b bf3d 66f7 6cbd

conv1.bias f4 [32]
4.7432415e-05 -2.136975e-05 2.4207851e-05 5.5820903e-05 -1.2370698e-05 4.15262e-06 7.462822e-06 -5.8881593e-05
3.200512e-05 -2.213401e-05 8.649135e-05 -7.371521e-05 9.05553e-05 2.9788693e-05 -4.500684e-05 1.2726252e-05
1.7569821e-06 0.00017141245 2.4235402e-05 6.799997e-05 -6.225805e-06 1.6631087e-05 -0.00012842065 6.267904e-06
-2.3620309e-05 -6.798422e-06 -1.864736e-05 -4.143683e-06 -3.3363222e-07 8.959499e-05 6.2856825e-06 2.549027e-05
00000000: 2bf2 4638 3043 b3b7 f711 cb37 3d21 6a38
00000010: be8b 4fb7 bc56 8b36 2769 fa36 a1f7 76b8
00000020: 3c3d 0638 6dac b9b7 b162 b538 8d97 9ab8
00000030: 82e8 bd38 bbe2 f937 bac5 3cb8 d682 5537
00000040: 72d1 eb35 2ebd 3339 214d cb37 359b 8e38
00000050: 42e7 d0b6 fd82 8b37 a8a8 06b9 e350 d236
00000060: 3a24 c6b7 001e e4b6 e76c 9cb7 f709 8bb6
00000070: 101e b3b4 f2e4 bb38 9ae9 d236 f0d3 d537

bn1.weight f4 [32]
0.9474798 0.9652823 0.97143906 0.99218285 0.96904963 0.98672056 0.9824282 0.98074293
0.9956724 0.9745597 1.0127759 1.0271938 0.9942344 0.9843364 0.9393728 0.9372402
0.96322757 0.9846101 1.0260308 0.98892534 1.0117044 0.9863053 0.9839155 0.9837866
0.98890954 0.981027 0.97160167 0.9691187 0.96559393 0.99987775 0.98781985 1.0187514
00000000: 098e 723f be1c 773f 3bb0 783f b2ff 7d3f
00000010: a313 783f b899 7c3f 6a80 7b3f f811 7b3f
00000020: 63e4 7e3f bf7c 793f a4a2 813f 167b 833f
00000030: 2586 7e3f 78fd 7b3f bc7a 703f f9ee 6f3f
00000040: 1596 763f 680f 7c3f fa54 833f 362a 7d3f
00000050: 887f 813f 817e 7c3f e3e1 7b3f 70d9 7b3f
00000060: 2d29 7d3f 9624 7b3f e3ba 783f 2a18 783f
00000070: 2a31 773f fdf7 7f3f c3e1 7c3f 7266 823f

bn1.bias f4 [32]
-0.02960999 -0.015417179 -0.0008407614 0.0059463787 -0.05536499 -0.029613907 0.0135264695 -0.002419701
-0.0010229077 -0.022071963 -0.028127156 0.020980408 0.032937296 -0.007949838 -0.027600948 -0.040694926
-0.041736927 -0.018403623 0.01747152 -0.009748787 0.028516771 0.008201224 -0.010364797 -0.016221793
0.041534435 -0.022831585 -0.01674569 -0.019342514 -0.0059921136 0.009903746 -0.0071908454 0.002150646
00000000: a690 f2bc 5698 7cbc 8b66 5cba d7d9 c23b
00000010: 66c6 62bd dd98 f2bc 209e 5d3c d993 1ebb
00000020: 1613 86ba 43d0 b4bc ec6a e6bc 1bdf ab3c
00000030: 42e9 063d 0a40 02bc 621b e2bc b9af 26bd
00000040: 57f4 2abd 32c3 96bc 6f20 8f3c 60b9 1fbc
00000050: 019c e93c 6d5e 063c 1cd1 29bc 91e3 84bc
00000060: 0320 2a3d 4e09 bbbc 422e 89bc 3174 9ebc
00000070: 7e59 c4bb 5243 223c 2fa1 ebbb daf1 0c3b

bn1.running_mean f4 [32]
4.0671137e-05 2.3353909e-05 3.9210856e-05 5.6353634e-05 -2.3439006e-05 2.534006e-05 -6.236519e-05 -1.2581762e-06
-3.4136324e-06 2.4012237e-05 6.586108e-05 -1.0853001e-05 0.00012626732 2.2335544e-05 5.369425e-05 -6.718546e-06
-2.1545948e-05 0.0001496598 -3.398464e-06 -1.255084e-05 5.0469338e-05 4.1319786e-06 -5.5661138e-05 6.264529e-05
-8.311454e-05 2.1164538e-05 -4.297695e-05 -1.4065569e-05 5.2649437e-05 5.3319432e-05 2.950178e-06 -3.2556043e-05
00000000: 4d96 2a38 23e8 c337 5676 2438 415d 6c38
00000010: e29e c4b7 5d91 d437 0eca 82b8 9bde a8b5
00000020: c215 65b6 e36d c937 e61e 8a38 4915 36b7
00000030: a066 0439 375d bb37 c335 6138 df6f e1b6
00000040: 92bd b4b7 ffed 1c39 2b11 64b6 7391 52b7
00000050: 0aaf 5338 6da5 8a36 b175 69b8 6f60 8338
00000060: c74d aeb8 808a b137 2642 34b8 29fb 6bb7
00000070: e7d3 5c38 4ea3 5f38 acfb 4536 c98c 08b8

bn1.running_var f4 [32]
0.51740783 0.3128414 0.14434716 0.32577375 0.62422603 0.24698484 0.09205891 0.16158746
0.3744619 0.6033456 0.2863278 0.3484213 0.2233489 0.22981307 0.2868875 0.4080702
0.23151548 0.20927484 0.24159746 0.2146363 0.32998243 0.17505343 0.121927425 0.94320697
0.33370608 0.4517512 0.43384087 0.60565925 0.21794125 0.16360499 0.21492349 0.5592948
00000000: d774 043f bf2c a03e becf 133e d1cb a63e
00000010: 47cd 1f3f 98e9 7c3e 6289 bc3d 2f77 253e
00000020: 78b9 bf3e db74 1a3f 8f99 923e 4764 b23e
00000030: 93b5 643e 1e54 6b3e ebe2 923e 94ee d03e
00000040: 6512 6d3e 254c 563e 5365 773e 9ec9 5b3e
00000050: 75f3 a83e 3541 333e 16b5 f93d 0376 713f
00000060: 86db aa3e ef4b e73e 6420 de3e 7c0c 1b3f
00000070: fe2b 5f3e 1188 273e e714 5c3e f22d 0f3f

conv2.weight f4 [64, 32, 1, 5]
-0.015363553 0.007851551 0.020608844 -0.00016783518 -0.018962491 0.010187498 0.055793583 -0.06917417
-0.025046345 0.049170896 -0.00028994746 -0.038476817 0.052649103 -0.078643195 0.046549074 0.06300933
0.07260884 0.001446656 -0.06822688 -0.0037687952 0.0550766 0.030064551 0.011020659 0.055410065
-0.058145 0.025676923 -0.03571058 -0.0030258244 -0.004441965 -0.04053898 -0.06880533 -0.02777433
-0.019446528 0.0512152 0.03201956 -0.08255948 0.016111936 -0.0118883755 -0.054168466 0.02422478
0.0023512358 0.027906043 -0.10126387 -0.008822347 0.033934858 0.012236854 0.0072209267 -0.029414816
-0.0060261865 0.072293736 0.024738766 -0.042001177 0.02568508 -0.037364725 -0.04538343 -0.06265271
-0.03394238 0.050636847 -0.067500204 -0.06743204 -0.068335526 -0.04363113 0.024578556 -0.031539157
-0.0640063 -0.019894501 -0.0692667 0.07174345 -0.064750515 -0.098715656 -0.034861963 0.02809168
0.064565025 -0.017028652 -0.014143291 0.008114975 -0.045512527 0.060274098 -0.0505055 0.01735295
0.028223528 0.012625439 -0.042059492 0.0021880656 -0.026075639 -0.034485165 -0.038044155 0.023721028
0.008942155 -0.05995625 -0.014382735 -0.0433833 -0.043792397 0.039086964 -0.010513008 -0.044696916
0.056920838 -0.020615168 0.08037042 -0.069318734 0.03659888 -0.032256898 -0.08275524 -0.082440086
0.051550854 0.054891143 -0.022935703 0.07019037 -0.03132273 -0.023741137 0.06753093 0.02821874
0.063033246 -0.026750633 0.07764243 0.006006193 0.006189306 0.08806901 0.061574563 0.01193973
0.009429767 0.014675901 -0.064268306 -0.05441971 0.032387625 0.0012025748 0.038056314 0.02431348
0.017798692 0.07640119 -0.0710513 -0.018667884 0.045483842 -0.0036136676 0.07435065 -0.017369688
-0.010432237 0.05481646 -0.052005276 0.05785338 -0.04929499 -0.06929419 -0.025175678 0.004308054
0.058488075 0.056666262 0.0026831438 0.054622337 -0.033841193 0.071825355 0.055206753 0.023102367
-0.016307054 -0.0008230405 0.054319672 0.061421454 -0.10034764 -0.07573373 -0.023279112 0.067602515
0.06658632 -0.014921183 0.08449213 -0.029364502 0.07929734 0.048761297 0.039618496 0.047200996
0.02785973 0.019756112 0.079432786 0.097074926 0.04863423 0.044317696 0.06717907 0.047593426
0.06940136 0.02836039 -0.047238998 0.050225116 0.052108265 -0.027112467 0.05632439 -0.05919727
-0.029091904 0.026377069 -0.04388412 0.04299282 0.06315203 -0.06629044 -0.03088793 -0.062872805
-0.0636672 0.061281368 -0.009405228 -0.006988585 -0.053518813 -0.06557442 -0.05179439 -0.016005423
0.020257162 -0.039777983 0.008931248 0.07361812 0.042756807 0.008254878 0.02631377 0.06313474
-0.03491983 0.050276373 -0.06765636 -0.052334823 0.049537595 0.0037646848 -0.076243505 -0.00486684
-0.059368607 -0.041149937 -0.1102705 0.026973642 0.06277248 0.04205797 0.06002533 -0.06815641
-0.011743742 0.081458956 0.009584191 -0.037531517 -5.9107002e-05 0.085021265 3.384899e-05 0.08831519
0.0066220686 0.0015648192 0.03276638 -0.03110465 0.034984667 -0.03429741 -0.03227797 0.037689183
0.018256862 0.007275242 -0.0322508 0.06941275 -0.054627832 -0.053174313 -0.025266135 0.003466736
0.050340477 -0.0145545155 -0.057233747 -0.048613742 0.013175072 0.03671261 0.023447921 0.036210142
00000000: 69b7 7bbc cba3 003c e1d3 a83c eafc 2fb9
00000010: 3a57 9bbc 77e9 263c d087 643d 30ab 8dbd
00000020: fe2d cdbc 6c67 493d 1704 98b9 de99 1dbd
00000030: 96a6 573d af0f a1bd 3eaa 3e3d 090b 813d
00000040: f2b3 943d b89d bd3a 89ba 8bbd e4fd 76bb
00000050: 0098 613d ef49 f63c fe8f 343c aaf5 623d
00000060: 7429 6ebd 6958 d23c 4245 12bd e94c 46bb
00000070: e78d 91bb 340c 26bd cfe9 8cbd fe86 e3bc
00000080: 534e 9fbc 08c7 513d f126 033d f214 a9bd
00000090: 2efd 833c 76c7 42bc c1df 5dbd 0c73 c63c
000000a0: 3117 1a3b 379b e43c 6f63 cfbd 9b8b 10bc
000000b0: 47ff 0a3d 167d 483c 869d ec3b 57f7 f0bc
000000c0: 5177 c5bb bd0e 943d f4a8 ca3c 6d09 2cbd
000000d0: 8469 d23c c10b 19bd fae3 39bd 1050 80bd
000000e0: 2a07 0bbd 9568 4f3d 8c3d 8abd cf19 8abd
000000f0: 7ff3 8bbd 8eb6 32bd f858 c93c 342f 01bd
00000100: bc15 83bd cbf9 a2bc b3db 8dbd 3bee 923d
00000110: eb9b 84bd 6f2b cabd 6bcb 0ebd 8620 e63c
00000120: ab3a 843d ac7f 8bbc 43b9 67bc acf4 043c
00000130: 586b 3abd f9e1 763d dbde 4ebd c627 8e3c
00000140: 0735 e73c eeda 4e3c 9346 2cbd a665 0f3b
00000150: 949c d5bc 5140 0dbd 30d4 1bbd 9a52 c23c
00000160: 1e82 123c af94 75bd 90a5 6bbc b0b2 31bd
00000170: a85f 33bd a719 203d c03e 2cbc 1d14 37bd
00000180: d325 693d 24e1 a8bc 3f99 a43d fbf6 8dbd
00000190: b5e8 153d cf1f 04bd 947b a9bd 59d6 a8bd
000001a0: fd26 533d 89d5 603d a8e3 bbbc f8bf 8f3d
000001b0: 434c 00bd c67c c2bc a84d 8a3d fd2a e73c
000001c0: 9317 813d 2524 dbbc ff02 9f3d 99cf c43b
000001d0: a9cf ca3b 865d b43d 9c35 7c3d db9e 433c
000001e0: 4f7f 1a3c 3173 703c 1a9f 83bd 34e7 5ebd
000001f0: e3a8 043d b79f 9d3a f0e0 1b3d 102d c73c
00000200: 90ce 913c 3a78 9c3d 5883 91bd 64ed 98bc
00000210: 444d 3a3d 48d3 6cbb 2745 983d e04a 8ebc
00000220: f9eb 2abc 3987 603d 7c03 55bd aaf7 6c3d
00000230: 8be9 49bd 1dea 8dbd 393d cebc 942a 8d3b
00000240: 3191 6f3d e21a 683d afd7 2f3b acbb 5f3d
00000250: 109d 0abd 2c19 933d 7a20 623d 2d41 bd3c
00000260: 5f96 85bc 50c1 57ba 4e7e 5e3d 1095 7b3d
00000270: 1083 cdbd 491a 9bbd d6b3 bebc 3073 8a3d
00000280: 695e 883d fa77 74bc 360a ad3d d38d f0bc
00000290: a566 a23d edb9 473d 0147 223d d555 413d
000002a0: 173a e43c 92d7 a13c a8ad a23d 38cf c63d
000002b0: b034 473d 7986 353d 2e95 893d 53f1 423d
000002c0: 4d22 8e3d 0c54 e83c ae7d 41bd dab8 4d3d
000002d0: 7a6f 553d f71a debc 67b4 663d d678 72bd
000002e0: 2552 eebc b914 d83c d6bf 33bd 3d19 303d
000002f0: da55 813d 48c3 87bd af08 fdbc 75c3 80bd
00000300: f363 82bd 2c02 7b3d 6318 1abc 8000 e5bb
00000310: 8b36 5bbd e24b 86bd 5b26 54bd ce1d 83bc
00000320: 59f2 a53c 3dee 22bd 5f54 123c 19c5 963d
00000330: c321 2f3d 783f 073c fa8f d73c c94c 813d
00000340: 1808 0fbd 99ee 4d3d 6b8f 8abd 0a5d 56bd
00000350: efe7 4a3d eeb8 763b 8e25 9cbd 037a 9fbb
00000360: 7f2c 73bd d68c 28bd 80d5 e1bd d4f7 dc3c
00000370: dc8e 803d fa44 2c3d 1fdd 753d 9695 8bbd
00000380: d368 40bc f4d3 a63d 0307 1d3c a6ba 19bd
00000390: a9e9 77b8 a11f ae3d 14f9 0d38 98de b43d
000003a0: f0fd d83b 9f1a cd3a 0a36 063d 2ecf febc
000003b0: 154c 0f3d 717b 0cbd e835 04bd f95f 1a3d
000003c0: 6a8f 953c 2765 ee3b 6a19 04bd 4628 8e3d
000003d0: 6fc1 5fbd 4fcd 59bd edfa cebc 2e32 633b
000003e0: d131 4e3d 1076 6ebc ef6d 6abd 341f 47bd
000003f0: 42dc 573c f65f 163d db15 c03c 1651 143d

conv2.bias f4 [64]
-2.1845335e-05 -2.2454985e-06 2.508803e-05 -4.107331e-05 -1.0250994e-06 7.301242e-05 4.9884984e-06 1.0400876e-05
-1.6784918e-06 6.2066174e-05 6.989009e-06 2.0927424e-05 -6.7019255e-06 4.4392556e-05 -3.172517e-06 8.5848715e-06
1.1031435e-05 1.2419623e-05 2.0494094e-06 4.4874782e-06 -2.359785e-05 1.2689954e-05 9.40138e-06 6.3403377e-06
2.7317661e-05 -9.233955e-06 -2.7267914e-05 2.402201e-06 1.0337924e-05 9.810104e-06 2.2846123e-05 9.589954e-06
-8.86658e-06 -4.006153e-06 2.9231767e-06 2.0913141e-05 -3.969793e-06 -4.441845e-06 2.8562547e-06 -3.3909498e-06
1.9949553e-05 -3.6971476e-06 -2.4889432e-05 1.8116622e-05 -8.931293e-06 -2.5012341e-06 1.3508561e-05 -9.0744525e-06
1.6714936e-05 -4.082295e-06 6.271701e-06 1.0678823e-05 7.0033316e-06 4.5584347e-05 6.959867e-05 9.485442e-06
5.8691666e-07 1.14464754e-07 2.6440659e-05 2.3785585e-06 -5.7801035e-06 1.5402076e-05 -4.2862066e-05 1.21105e-05
00000000: 8040 b7b7 5fb1 16b6 2274 d237 2146 2cb8
00000010: 2696 89b5 3f1e 9938 e062 a736 6c7f 2e37
00000020: 8a48 e1b5 8629 8238 2183 ea36 4d8d af37
00000030: 1ae1 e0b6 2532 3a38 6de7 54b6 be07 1037
00000040: a713 3937 e05d 5037 9688 0936 2593 9636
00000050: fff3 c5b7 f0e6 5437 9fba 1d37 16bf d436
00000060: 3b28 e537 89eb 1ab7 66bd e4b7 8035 2136
00000070: 0c71 2d37 1396 2437 ada5 bf37 8ae4 2037
00000080: acc1 14b7 986c 86b6 cb2b 4436 a16e af37
00000090: 4334 85b6 280b 95b6 15ae 3f36 1390 63b6
000000a0: 5759 a737 831c 78b6 a6c9 d0b7 26f9 9737
000000b0: 9dd7 15b7 e0da 27b6 d4a2 6237 7a3e 18b7
000000c0: 0d37 8c37 a6fa 88b6 8071 d236 3229 3337
000000d0: 29fe ea36 d231 3f38 80f5 9138 aa23 1f37
000000e0: 9b8c 1d35 aacf f533 e2cc dd37 539f 1f36
000000f0: b6f2 c1b6 b533 8137 cbc6 33b8 342e 4b37

bn2.weight f4 [64]
0.96440774 0.8926652 0.97420824 0.9247076 0.94570285 0.9580973 0.9175196 1.0127387
0.8832711 1.012276 0.95676583 0.9650116 0.8490943 0.960974 0.86637914 0.9432082
0.8656713 1.0189325 0.91916215 0.9098337 1.0405961 0.9801142 0.98106664 0.9996485
0.93332237 0.92142457 1.0459918 0.89123476 1.014499 0.94254273 0.9700851 0.94520336
1.0099037 0.8612363 0.90330637 0.9187048 0.86323005 0.9480816 0.9205345 0.9437896
0.9677096 0.93619716 0.9657088 0.9595188 0.9111009 0.89373404 0.96044385 0.8575611
0.90389055 0.94755334 0.8788317 0.9640177 0.91410494 1.0088147 1.0140276 0.9052261
1.0150712 0.8711214 0.9596864 0.8749741 0.87170327 0.9370502 1.0339705 0.9141113
00000000: 6de3 763f b585 643f b665 793f a3b9 6c3f
00000010: 9519 723f dd45 753f 91e2 6a3f 6ca1 813f
00000020: 0e1e 623f 4392 813f 9bee 743f 000b 773f
00000030: 3e5e 593f 6402 763f 06cb 5d3f 1876 713f
00000040: a29c 5d3f 616c 823f 364e 6b3f ddea 683f
00000050: 4132 853f c4e8 7a3f 2f27 7b3f f7e8 7f3f
00000060: 37ee 6e3f 7be2 6b3f 0fe3 853f f627 643f
00000070: 1adb 813f 7b4a 713f 7f57 783f d9f8 713f
00000080: 8644 813f fb79 5c3f 163f 673f 3d30 6b3f
00000090: a5fc 5c3f 7ab5 723f 26a8 6b3f 329c 713f
000000a0: d1bb 773f 9eaa 6f3f b138 773f 06a3 753f
000000b0: e93d 693f c1cb 643f a6df 753f 2089 5b3f
000000c0: 5f65 673f db92 723f 1dfb 603f ddc9 763f
000000d0: c802 6a3f d720 813f a8cb 813f e6bc 673f
000000e0: daed 813f d001 5f3f 02ae 753f 4dfe 5f3f
000000f0: f227 5f3f 86e2 6f3f 2559 843f 3303 6a3f

bn2.bias f4 [64]
-0.034014262 -0.034804184 -0.077769585 -0.045951147 -0.017430399 -0.0054203225 0.000113329 -0.011189602
-0.024754683 0.04249856 -0.0013122143 0.0003694164 -0.008474743 -0.00096006953 -0.024526795 -0.032422878
0.0025063667 0.015721655 -0.021688005 -0.032423966 -0.041078467 -0.009754729 0.011092228 0.019496381
-0.022294408 -0.0015749537 -0.014933267 -0.02973679 -0.009000908 -0.02973272 -0.015844297 -0.013091021
-0.04339168 -0.03213424 0.007766604 -0.04108822 -0.03985562 0.015469753 -0.03740762 -0.042328373
-0.016423913 -0.0036335622 -0.0071271835 -0.03310723 -0.015688205 -0.029291868 -0.0033970005 -0.026426371
-0.03086103 -0.03949643 -0.02004085 -0.03364485 -0.047845237 -0.042625014 -0.018281972 -0.048569433
-0.036320645 -0.02310195 -0.02279789 -0.02581187 -0.037263133 -0.011302997 -0.017970571 -0.03807469
00000000: 8a52 0bbd d58e 0ebd a945 9fbd 4537 3cbd
00000010: 32ca 8ebc f69c b1bb 0bab ed38 9854 37bc
00000020: 55ca cabc f812 2e3d 9bfe abba 3bae c139
00000030: a6d9 0abc 2dad 7bba 6bec c8bc dacd 04bd
00000040: db41 243b b3ca 803c 0bab b1bc fece 04bd
00000050: e541 28bd 4dd2 1fbc 2dbc 353c e0b6 9f3c
00000060: c3a2 b6bc ad6e ceba a9aa 74bc 929a f3bc
00000070: 8b78 13bc 0992 f3bc e6cb 81bc b97b 56bc
00000080: 79bb 31bd 319f 03bd ff7e fe3b 1f4c 28bd
00000090: a63f 23bd d974 7d3c bc38 19bd 8460 2dbd
000000a0: 718b 86bc 0f21 6ebb 268b e9bb 729b 07bd
000000b0: 8d84 80bc 80f5 efbc 36a0 5ebb 1e7c d8bc
000000c0: 45d0 fcbc 02c7 21bd b52c a4bc 2fcf 09bd
000000d0: 5ef9 43bd 9197 2ebd 13c4 95bc bef0 46bd
000000e0: f5c4 14bd 4d40 bdbc a4c2 babc 6a73 d3bc
000000f0: 3aa1 18bd 3530 39bc 0537 93bc 35f4 1bbd

bn2.running_mean f4 [64]
-0.0702959 0.40286398 0.035755698 -0.21757536 -0.22251852 -0.22688282 -0.38656425 -0.1223053
0.16768436 -0.5749337 -0.063938126 0.02213879 -0.4867533 -0.08346445 0.26262438 0.07699394
-0.28970248 -0.8709737 0.18928386 -0.33893457 -0.229263 -0.3947329 -0.69861066 -0.28766492
-0.09416406 -0.4471919 -0.40697476 -0.18409742 -0.46947908 -0.050856836 0.13836698 -0.43527842
0.64176345 -0.81766284 -0.19237393 0.24014898 -0.07674687 -0.39731678 0.8733122 -0.20190854
-0.039952505 -0.89733344 -0.4089722 -0.08258112 0.042340655 -0.39722607 -0.5576516 -0.38449785
0.29585126 0.2667536 -0.39149687 -0.5576472 -0.6731524 -0.001455586 0.14430822 0.5257819
0.14378777 -0.5548711 0.2895559 0.5141228 -0.2424066 -0.33116728 -0.19128105 0.07032854
00000000: 4cf7 8fbd 3044 ce3e 9174 123d 13cc 5ebe
00000010: e5db 63be f853 68be c0eb c5be 337b fabd
00000020: 73b5 2b3e db2e 13bf fef1 82bd 685c b53c
00000030: bb37 f9be 69ef aabd b476 863e 00af 9d3d
00000040: e253 94be 22f8 5ebf a1d3 413e d588 adbe
00000050: ebc3 6abe 6e1a cabe 26d8 32bf d148 93be
00000060: 16d9 c0bd 56f6 e4be ff5e d0be 0984 3cbe
00000070: 905f f0be 424f 50bd 13b0 0d3e d0dc debe
00000080: 9c4a 243f 5a52 51bf acfd 44be 9de9 753e
00000090: 772d 9dbd 1b6d cbbe 6391 5f3f 1dc1 4ebe
000000a0: 3da5 23bd a5b7 65bf ce64 d1be 4a20 a9bd
000000b0: 656d 2d3d 3761 cbbe 41c2 0ebf e7dc c4be
000000c0: d179 973e ee93 883e 4772 c8be f8c1 0ebf
000000d0: b753 2cbf 5dc9 beba 89c5 133e a599 063f
000000e0: 1a3d 133e 080c 0ebf ac40 943e 8d9d 033f
000000f0: 7039 78be c28e a9be 2edf 43be 6908 903d

bn2.running_var f4 [64]
0.3377199 0.27136746 0.5941626 0.13503349 0.44703478 0.21169132 0.27227867 0.13897663
0.26687232 0.21848226 0.31749046 0.18039621 0.3818864 0.28270718 0.16669914 0.22732314
0.24433942 0.35080415 0.28919858 0.19234383 0.81321603 0.16630892 0.20488708 0.29888093
0.11995875 0.2374719 0.18721823 0.21146789 0.22351831 0.1895928 0.17198998 0.62542367
0.21914305 0.37880877 0.15661785 0.13808729 0.21081546 0.24008617 0.22207728 0.17800394
0.4499648 0.39102575 0.12325849 0.42508295 0.2080781 0.47688323 0.42025417 0.23179723
0.21263883 0.19178686 0.23691067 0.69811535 0.21034953 0.2758692 0.21085335 0.15814045
0.15093711 0.32666734 0.5371723 0.30154216 0.27709484 0.17908356 0.35101372 0.1654367
00000000: 9fe9 ac3e adf0 8a3e 0a1b 183f 3846 0a3e
00000010: bee1 e43e 9cc5 583e 1c68 8b3e e44f 0e3e
00000020: 7da3 883e d0b9 5f3e 1c8e a23e c9b9 383e
00000030: 9d86 c33e ffbe 903e 2eb3 2a3e 66c7 683e
00000040: 1d34 7a3e 9a9c b33e d611 943e c8f5 443e
00000050: ed2e 503f e34c 2a3e ebcd 513e ec06 993e
00000060: efac f53d d52b 733e 23b6 3f3e 0a8b 583e
00000070: fce1 643e 9d24 423e 241e 303e c41b 203f
00000080: 0967 603e 39f3 c13e 6e60 203e c166 0d3e
00000090: 02e0 573e 26d9 753e 3a68 633e aa46 363e
000000a0: c961 e63e 8734 c83e f26e fc3d 79a4 d93e
000000b0: 6d12 553e 0a2a f43e 8e2b d73e 415c 6d3e
000000c0: febd 593e c663 443e b698 723e b0b7 323f
000000d0: de65 573e ba3e 8d3e f1e9 573e 92ef 213e
000000e0: 428f 1a3e f140 a73e 2084 093f bc63 9a3e
000000f0: 60df 8d3e ae61 373e 12b8 b33e 3d68 293e

conv3.weight f4 [128, 64, 1, 3]
-0.036482718 0.06203725 -0.02924268 -0.026831357 0.043021355 0.0024518762 -0.06361105 0.012357363
0.007968535 -0.011891448 0.07799467 -0.0053374316 -0.061017312 -0.0018809247 0.02928431 0.051944196
-0.0047894376 0.005574972 -0.034680884 0.031556927 0.075748794 -0.03486907 0.06654812 0.011159182
-0.068635955 -0.023606494 -0.038381923 -0.0017237107 0.07425632 0.03737066 -0.045292314 0.049112655
-0.029447401 0.043751806 0.06138204 -0.054704566 -0.039304078 -0.012420699 0.02356222 -0.0539773
0.044728782 -0.012119397 0.009378164 0.016285034 0.032173593 -0.06805378 -0.013560126 -0.0381108
-0.052132368 0.019296002 0.03634495 -0.035013966 0.01480089 -0.028405372 0.061442345 -0.040787578
0.061562266 0.0032960656 0.049924836 0.038907494 -0.0031758444 -0.047444392 -0.123849474 0.05462198
0.056860752 -0.03163342 -0.05247428 -0.056631856 -0.0044424636 0.018037526 -0.003383219 0.016648041
-0.030095806 -0.00466769 0.043144565 0.057642683 -0.039433405 -0.016719725 -0.04428702 -0.00877338
0.06486764 -0.06201754 -0.0032665557 -0.020711819 -0.027544627 -0.03862762 -0.023984404 0.0110567985
0.08829708 0.057569064 -0.027201517 0.07280876 0.023694806 -0.036555372 0.047891617 -0.05661231
-0.07153565 -0.032321453 -0.029676763 0.0052655865 0.03496969 0.014612533 0.016900012 -0.020001784
0.022761308 0.06463819 0.022726191 0.03371585 -0.031748723 0.019763943 -0.041384034 0.053827208
0.028709056 0.009827164 0.050678786 -0.04671097 -0.051028952 0.033707798 0.07690137 -0.042226154
-0.035146195 0.054195188 -0.05494226 -0.04448763 0.045201372 -0.021279119 -0.03910304 0.019448344
-0.032424644 -0.0744285 -0.064311616 0.005090724 -0.013985026 0.031581376 -0.06365014 -0.054981668
-0.024727156 0.040233705 0.033580903 0.040561564 -0.014935365 -0.036658052 0.014348801 0.042986143
0.05554662 0.093330055 0.0023659018 0.018783355 -0.042487983 -0.047527626 0.02070511 0.032168686
0.0490265 -0.018708913 -0.03326735 -0.026452135 -0.034447104 -0.003426677 -0.05653772 -0.05011409
0.044145096 -0.021324491 -0.036912076 0.039129443 -0.058496185 -0.022651115 -0.03135182 -0.037727594
-0.031196186 -0.02543131 0.036180563 -0.037963714 -0.042637344 0.055287085 0.016957564 0.033397533
-0.008576781 -0.03855767 0.05965394 -0.0028423183 0.0020076856 -0.020098444 0.011853696 -0.0026189135
0.071473576 0.070852764 -0.038124964 -0.059524078 0.028292455 0.025838327 -0.014183782 0.02327013
0.053169865 -0.039212123 -0.056420155 -0.057661206 -0.0022600638 0.0112552615 -0.0014150515 -0.05331579
0.0353723 -0.049153607 -0.008679987 0.035380967 0.0032385425 0.030076062 -0.01041448 -0.05697275
-0.04621045 -0.00081761135 -0.008941969 -0.0016222317 0.06272811 -0.016857177 -0.0010341071 0.02270854
-0.004524417 0.053845167 -0.06326465 0.007859389 0.006507425 -0.079683505 0.037203778 -0.019862782
-0.019598482 0.052732736 0.032982454 0.018501436 0.0476355 -0.026435267 0.0184822 -0.07468178
-0.038514256 -0.027963385 -0.0036319515 -0.05337357 0.03193815 -0.055257913 -0.035034165 0.035601646
0.027921971 0.05556072 -0.022233646 0.12101423 -0.03840043 -0.0721063 0.00775805 0.0021367208
0.06460213 0.00936955 0.012632725 0.04873049 -0.0064169327 -0.012299263 -0.0056264945 -0.033915445
00000000: e76e 15bd c51a 7e3d 588e efbc 6fcd dbbc
00000010: 2937 303d a8af 203b 8346 82bd 8976 4a3c
00000020: 758e 023c 59d4 42bc abbb 9f3d 9fe5 aebb
00000030: 4aed 79bd 5c89 f6ba a6e5 ef3c 70c3 543d
00000040: b7f0 9cbb 41ae b63b 8b0d 0ebd d641 013d
00000050: 2f22 9b3d dfd2 0ebd 614a 883d 00d5 363c
00000060: 0291 8cbd 6862 c1bc 5d36 1dbd 22ee e1ba
00000070: b313 983d fa11 193d 6f84 39bd 5a2a 493d
00000080: ad3b f1bc 1835 333d bc6b 7b3d e511 60bd
00000090: 50fd 20bd 3080 4bbc 8f05 c13c 4d17 5dbd
000000a0: 8735 373d 6f90 46bc dfa6 193c 3168 853c
000000b0: 75c8 033d c85f 8bbd 4a2b 5ebc 121a 1cbd
000000c0: c088 55bd a612 9e3c 71de 143d ce6a 0fbd
000000d0: 6f7f 723c 62b2 e8bc f8aa 7b3d e010 27bd
000000e0: b728 7c3d ce02 583b fc7d 4c3d 775d 1f3d
000000f0: d421 50bb 0d55 42bd cba4 fdbd 4cbb 5f3d
00000100: d2e6 683d 0c92 01bd 45ef 56bd cef6 67bd
00000110: 1692 91bb 6fc3 933c ffb8 5dbb 7961 883c
00000120: 7b8b f6bc 6cf3 98bb 5bb8 303d bc1a 6c3d
00000130: ec84 21bd cef7 88bc 4e66 35bd 39be 0fbc
00000140: 53d9 843d 1b06 7ebd b613 56bb d5ab a9bc
00000150: 45a5 e1bc ff37 1ebd f17a c4bc 9327 353c
00000160: 19d5 b43d 8acd 6b3d b7d5 debc c21c 953d
00000170: 9c1b c23c 16bb 15bd 002a 443d 4fe2 67bd
00000180: 4881 92bd 8063 04bd af1c f3bc f18a ac3b
00000190: 613c 0f3d 6869 6f3c e571 8a3c c8da a3bc
000001a0: ec75 ba3c 0761 843d 472c ba3c a219 0a3d
000001b0: f30a 02bd fee7 a13c 4e82 29bd eb79 5c3d
000001c0: 412f eb3c 1d02 213c 8f94 4f3d 0154 3fbd
000001d0: bc03 51bd 3011 0a3d 777e 9d3d 55f5 2cbd
000001e0: 75f5 0fbd c6fb 5d3d 230b 61bd a938 36bd
000001f0: 1325 393d 8c51 aebc 822a 20bd 2252 9f3c
00000200: b4cf 04bd f86d 98bd cfb5 83bd 17d0 a63b
00000210: 7321 65bc 795b 013d 015b 82bd 7534 61bd
00000220: 9b90 cabc 19cc 243d 218c 093d e223 263d
00000230: 76b3 74bc c126 16bd 3c17 6b3c 3d12 303d
00000240: da84 633d d423 bf3d 3f0d 1b3b 8ddf 993c
00000250: e107 2ebd 54ac 42bd c39d a93c 50c3 033d
00000260: 03d0 483d 6f43 99bc 5843 08bd 26b2 d8bc
00000270: 6818 0dbd 1a92 60bb 1994 67bd 6f44 4dbd
00000280: 7dd1 343d b3b0 aebc 1e31 17bd 3246 203d
00000290: b299 6fbd d58e b9bc c46a 00bd 4088 1abd
000002a0: 258f ffbc 5355 d0bc 1232 143d d77f 1bbd
000002b0: 7fa4 2ebd b674 623d 97ea 8a3c dacb 083d
000002c0: a085 0cbc a6ee 1dbd b157 743d 3046 3abb
000002d0: 6093 033b 7ea5 a4bc 0136 423c 14a2 2bbb
000002e0: bd60 923d 411b 913d ec28 1cbd 85cf 73bd
000002f0: 94c5 e73c e6aa d33c 1863 68bc 00a1 be3c
00000300: a5c8 593d e49c 20bd d218 67bd 282e 6cbd
00000310: 941d 14bb fd67 383c 4079 b9ba a861 5abd
00000320: 8be2 103d 4b55 49bd 8136 0ebc a2eb 103d
00000330: ba3d 543b 1362 f63c 7fa1 2abc 425c 69bd
00000340: 2b47 3dbd f854 56ba 5681 12bc 10a1 d4ba
00000350: 9877 803d 1018 8abc e08a 87ba 4307 ba3c
00000360: 9041 94bb c08c 5c3d e690 81bd abc4 003c
00000370: 3d3c d53b 1b31 a3bd fd62 183d 46b7 a2bc
00000380: ff8c a0bc 48fe 573d 9c18 073d 5390 973c
00000390: 711d 433d c68e d8bc fc67 973c c3f2 98bd
000003a0: 20c1 1dbd 7813 e5bc 0906 6ebb 3f9e 5abd
000003b0: 94d1 023d 1f56 62bd fc7f 0fbd 08d3 113d
000003c0: 9ebc e43c a393 633d 5623 b6bc 4fd6 f73d
000003d0: c549 1dbd 78ac 93bd 3e37 fe3b 3a08 0c3b
000003e0: 1f4e 843d be82 193c 7df9 4e3c 9f99 473d
000003f0: 2245 d2bb d982 49bc 755e b8bb ecea 0abd

conv3.bias f4 [128]
0.00018029974 -5.115292e-05 5.1059375e-05 5.8671198e-05 -8.835954e-05 -4.1754778e-05 3.6997495e-05 -3.9601464e-06
1.9507796e-05 -6.117e-05 -1.6042697e-05 0.0001252086 2.1352576e-05 1.338734e-05 -2.6724763e-05 -1.3887358e-05
6.9714224e-06 5.122453e-05 3.8088805e-05 2.6280777e-05 -8.622968e-06 -2.2996996e-05 -5.5720517e-05 1.3316534e-05
-4.4708668e-06 1.2732731e-05 -1.2274945e-06 -9.68869e-06 -5.711219e-07 7.06183e-07 -2.9682658e-05 5.8156216e-05
5.220891e-06 9.753042e-06 4.995967e-05 -9.542044e-06 -4.552417e-05 4.606369e-05 -9.582052e-06 -2.8270339e-05
-3.812012e-05 -8.49768e-06 9.675122e-06 5.316854e-05 -1.8239654e-05 2.8603663e-05 -1.817071e-06 -7.8843565e-05
-1.7797534e-05 -1.8324592e-05 -1.7799666e-05 -7.705906e-06 -1.8919694e-05 1.1551463e-05 -2.8538192e-05 1.32783925e-05
-5.903336e-07 -1.5985124e-05 0.00010743523 -4.23469e-05 1.7405675e-05 3.2062726e-05 2.7054266e-05 -2.7191301e-05
-5.9196813e-05 4.9436294e-05 1.8238148e-05 -1.5745863e-05 5.0237322e-05 -3.0585383e-05 7.6578945e-06 -2.6247082e-05
-1.1412698e-05 -3.807968e-05 -1.3296329e-05 3.04774e-05 -1.1301825e-06 -4.663986e-06 3.1453355e-06 -1.1381956e-05
6.987945e-06 -3.3526892e-05 5.4215052e-05 9.019409e-05 1.9330695e-05 1.7729491e-05 1.2123188e-05 5.0675237e-05
9.653095e-05 7.745124e-06 2.7469941e-05 -1.0599834e-05 -4.4084445e-05 -7.755135e-05 -2.1819606e-05 -2.079125e-05
3.6726688e-05 -2.1423502e-06 7.195504e-05 2.428756e-05 2.8293523e-05 8.588901e-06 -3.3769425e-05 1.0060195e-05
2.2572813e-05 4.7233465e-05 2.7510903e-05 3.956393e-05 2.9288183e-06 1.7572154e-05 -7.077054e-05 -8.388343e-06
1.9100715e-05 -2.6334537e-05 -1.678377e-05 2.2646436e-06 -2.9276347e-05 6.515614e-06 1.6440312e-05 -5.4488028e-05
-6.450646e-05 -5.6025787e-05 -1.1463069e-06 7.329766e-06 -4.8011654e-05 -7.525797e-05 -8.4749074e-05 -9.730755e-06
00000000: d80e 3d39 088d 56b8 9628 5638 b815 7638
00000010: ab4d b9b8 da21 2fb8 c22d 1b38 66e1 84b6
00000020: aca4 a337 6548 80b8 6e93 86b7 6d4a 0339
00000030: 4f1e b337 309a 6037 fe2e e0b7 c0fd 68b7
00000040: 10ec e936 ecd9 5638 8bc1 1f38 8a75 dc37
00000050: 5eab 10b7 ace9 c0b7 73b5 69b8 146a 5f37
00000060: 7404 96b6 aa9e 5537 64c0 a4b5 9b8c 22b7
00000070: 334f 19b5 8790 3d35 06ff f8b7 c3ec 7338
00000080: 1d2f af36 ffa0 2337 ca8b 5138 c416 20b7
00000090: 35f1 3eb8 8334 4138 9ac2 20b7 1726 edb7
000000a0: 2be3 1fb8 4291 0eb7 5552 2237 4901 5f38
000000b0: 5c01 99b7 e6f1 ef37 16e2 f3b5 d158 a5b8
000000c0: ea4b 95b7 c3b7 99b7 7e50 95b7 9d48 01b7
000000d0: bcb5 9eb7 28cd 4137 4d65 efb7 43c6 5e37
000000e0: 6b77 1eb5 cb17 86b7 da4e e138 a39d 31b8
000000f0: 6702 9237 177b 0638 98f2 e237 e018 e4b7
00000100: 184a 78b8 d159 4f38 20fe 9837 fc15 84b7
00000110: eab5 5238 ce48 00b8 687a 0037 2e2d dcb7
00000120: 2a79 3fb7 bfb7 1fb8 4c13 5fb7 b8a9 ff37
00000130: c6b0 97b5 567f 9cb6 7414 5336 21f5 3eb7
00000140: fe79 ea36 3a9f 0cb8 f864 6338 9526 bd38
00000150: 5a28 a237 cbb9 9437 b264 4b37 1f8c 5438
00000160: a970 ca38 0ef1 0137 406f e637 f1d5 31b7
00000170: 50e7 38b8 10a3 a2b8 3f09 b7b7 df68 aeb7
00000180: fb0a 1a38 4cc5 0fb6 91e6 9638 23bd cb37
00000190: e157 ed37 0d19 1037 a5a3 0db8 35c8 2837
000001a0: bf5a bd37 8c1c 4638 37c7 e637 72f1 2538
000001b0: b78c 4436 ea67 9337 a56a 94b8 a9bb 0cb7
000001c0: 793a a037 fde8 dcb7 dfca 8cb7 48fa 1736
000001d0: 7a96 f5b7 b3a0 da36 4de9 8937 138a 64b8
000001e0: a447 87b8 3bfd 6ab8 ceda 99b5 36f2 f536
000001f0: 1f60 49b8 d1d3 9db8 50bb b1b8 4641 23b7

bn3.weight f4 [128]
0.96378416 0.96653134 0.9430893 0.8636155 0.95156646 0.95488566 0.87065756 0.94231194
0.93534094 0.9660074 0.94881004 0.93639916 0.9583048 0.8449903 0.92976904 0.9591071
0.94377935 0.8622557 0.9588832 0.96222544 0.96645033 0.9232718 0.93063635 0.9485097
0.83976704 0.94772065 0.9174329 0.9257372 0.95470244 0.95943195 0.946453 0.9573969
0.95719224 0.9366046 0.9704177 0.89005125 0.9094544 0.9458177 0.9530168 0.9507199
0.9640198 0.9432143 0.94997823 0.9728582 0.9414397 0.96942025 0.9499591 0.9526218
0.952302 0.94825065 0.9620722 0.9385577 0.95101076 0.944198 0.9357087 0.9424983
0.8988341 0.9409803 0.9564455 0.9423642 0.90042025 0.9657067 0.95434207 0.96201223
0.96391964 0.96395415 0.9628276 0.95302814 0.86080253 0.934457 0.9202638 0.95050514
0.9566597 0.94784045 0.9498132 0.9450353 0.9549092 0.9165848 0.9472381 0.933415
0.80613977 0.9464953 0.9345297 0.9534348 0.9646994 0.8099324 0.92532617 0.9525511
0.969189 0.96031237 0.9454947 0.94425476 0.9462195 0.9604048 0.8860711 0.95085114
0.95526105 0.96010154 0.9519228 0.9637216 0.9739894 0.8163564 0.9516148 0.95148367
0.93284094 0.9547751 0.9606582 0.93645996 0.9568314 0.9577451 0.94578767 0.9383398
0.9574452 0.9552674 0.9732949 0.95207375 0.95388055 0.9366578 0.95200926 0.953584
0.9543328 0.9453276 0.9471252 0.95598847 0.9017572 0.9421684 0.9468221 0.9610451
00000000: 8fba 763f 996e 773f 4d6e 713f e815 5d3f
00000010: dc99 733f 6373 743f 6ae3 5e3f 5b3b 713f
00000020: 8172 6f3f 434c 773f 37e5 723f dbb7 6f3f
00000030: 7753 753f 4951 583f 5805 6e3f 0b88 753f
00000040: 869b 713f cabc 5c3f 5f79 753f 6854 763f
00000050: 4a69 773f 8a5b 6c3f 2f3e 6e3f 88d1 723f
00000060: f9fa 563f d29d 723f e2dc 6a3f 1dfd 6c3f
00000070: 6167 743f 559d 753f be4a 723f f717 753f
00000080: 8d0a 753f 52c5 6f3f 4b6d 783f 66da 633f
00000090: 01d2 683f 1c21 723f e9f8 733f 6162 733f
000000a0: 00ca 763f 7e76 713f c631 733f 3c0d 793f
000000b0: 3102 713f ed2b 783f 8530 733f 06df 733f
000000c0: 10ca 733f 8ec0 723f 5d4a 763f 5145 703f
000000d0: 7175 733f f6b6 713f 9b8a 6f3f 9247 713f
000000e0: fe19 663f 16e4 703f 9dd9 743f c83e 713f
000000f0: f181 663f 8e38 773f c34f 743f 6f46 763f
00000100: 70c3 763f b3c5 763f df7b 763f a7f9 733f
00000110: 8e5d 5c3f 9338 6f3f 6996 6b3f 4e54 733f
00000120: a6e7 743f aca5 723f f526 733f d5ed 713f
00000130: ee74 743f 4da5 6a3f 327e 723f 49f4 6e3f
00000140: 2d5f 4e3f 844d 723f 573d 6f3f 4e14 743f
00000150: 8af6 763f bb57 4f3f 2de2 6c3f 64da 733f
00000160: c51c 783f 08d7 753f f10b 723f aeba 713f
00000170: 713b 723f 17dd 753f 8ed5 623f fb6a 733f
00000180: fd8b 743f 37c9 753f 36b1 733f 75b6 763f
00000190: 5f57 793f bcfc 503f 079d 733f 6f94 733f
000001a0: aace 6e3f 246c 743f b2ed 753f d7bb 6f3f
000001b0: e7f2 743f c82e 753f 241f 723f 0a37 703f
000001c0: 211b 753f 688c 743f db29 793f 1bbb 733f
000001d0: 8431 743f cec8 6f3f e1b6 733f 151e 743f
000001e0: 284f 743f fd00 723f cc76 723f a9bb 743f
000001f0: 8fd9 663f f331 713f ef62 723f 0d07 763f

bn3.bias f4 [128]
-0.02984963 -0.059590686 -0.04418593 -0.023829263 -0.013896727 -0.04100907 -0.025225585 -0.028454583
-0.07106698 -0.04584633 -0.034305748 -0.06871608 -0.034084503 -0.039422274 -0.07339793 -0.056670256
-0.05068093 -0.028730793 -0.058842756 -0.043626465 -0.028437465 -0.07530641 -0.07529323 -0.051092524
-0.035125967 -0.04882961 -0.081347965 -0.0758655 -0.045530472 -0.051523708 -0.040998276 -0.04696354
-0.032973874 -0.062726915 -0.03212778 -0.030677078 -0.023261625 -0.07270282 -0.050947778 -0.040406357
-0.03339014 -0.033949297 -0.043260884 -0.037111286 -0.06523609 -0.038698804 -0.038023066 -0.019888982
-0.06043158 -0.039409276 -0.042810105 -0.03563358 -0.059462477 -0.06126949 -0.030529441 -0.059538506
-0.02461801 -0.065830335 -0.03138134 -0.058728006 -0.033553913 -0.027645111 -0.02816188 -0.04178652
-0.022928474 -0.028859679 -0.021645812 -0.05630144 -0.03201867 -0.022755008 -0.016280962 -0.046673503
-0.03111538 -0.07822866 -0.04781007 -0.05027127 -0.054174077 -0.03733206 -0.054194354 -0.06885886
-0.0462882 -0.030002914 -0.07388955 -0.050459277 -0.03245946 -0.052900486 -0.076420926 -0.04277267
-0.0269291 -0.025303062 -0.040480427 -0.049044777 -0.064065315 -0.044106968 -0.023425601 -0.044511512
-0.031123107 -0.036989897 -0.044771038 -0.045808144 -0.033654615 -0.04520408 -0.049271334 -0.045801636
-0.035819292 -0.052381612 -0.036130097 -0.06434718 -0.038253855 -0.048465062 -0.061596747 -0.071798265
-0.042528953 -0.033257864 -0.036833804 -0.05908483 -0.028962445 -0.026654212 -0.047208868 -0.04528534
-0.059301186 -0.081361294 -0.05311279 -0.055347934 -0.032606725 -0.07079136 -0.054837417 -0.043245282
00000000: 3687 f4bc 5d15 74bd 4efc 34bd 9635 c3bc
00000010: 19af 63bc 20f9 27bd e3a5 cebc 9619 e9bc
00000020: 918b 91bd 5cc9 3bbd 2f84 0cbd 04bb 8cbd
00000030: 319c 0bbd 4079 21bd a751 96bd 121f 68bd
00000040: cf96 4fbd d75c ebbc 1a05 71bd aab1 32bd
00000050: b0f5 e8bc 3f3a 9abd 5633 9abd 6546 51bd
00000060: 3fe0 0fbd 8f01 48bd c399 a6bd 5f5f 9bbd
00000070: 297e 3abd 860a 53bd cfed 27bd d75c 40bd
00000080: 9d0f 07bd f876 80bd 6b98 03bd 7f4e fbbc
00000090: 2a8f bebc 37e5 94bd 9eae 50bd 2381 25bd
000000a0: 19c4 08bd 6b0e 0bbd 5332 31bd 0102 18bd
000000b0: 809a 85bd a382 1ebd 13be 1bbd 38ee a2bc
000000c0: 1b87 77bd 9f6b 21bd a659 2fbd 84f4 11bd
000000d0: ed8e 73bd b7f5 7abd e118 fabc a6de 73bd
000000e0: b5ab c9bc 0ed2 86bd b889 00bd c78c 70bd
000000f0: d46f 09bd 0078 e2bc beb3 e6bc 5828 2bbd
00000100: 7fd4 bbbc 226b ecbc 8f52 b1bc 579c 66bd
00000110: 0226 03bd b668 babc a75f 85bc b72c 3fbd
00000120: aee5 febc 5936 a0bd 7ed4 43bd 3fe9 4dbd
00000130: a3e5 5dbd 81e9 18bd e6fa 5dbd e005 8dbd
00000140: b298 3dbd acc8 f5bc 6853 97bd 63ae 4ebd
00000150: 36f4 04bd 2eae 58bd 9382 9cbd 6532 2fbd
00000160: 6a9a dcbc 5e48 cfbc cece 25bd 2de3 48bd
00000170: ad34 83bd 82a9 34bd 0ce7 bfbc b451 36bd
00000180: e3f5 febc b882 17bd d661 37bd 52a1 3bbd
00000190: 6cd9 09bd ea27 39bd bdd0 49bd 7f9a 3bbd
000001a0: 40b7 12bd 1a8e 56bd 27fd 13bd 74c8 83bd
000001b0: 13b0 1cbd 4d83 46bd df4c 7cbd f80a 93bd
000001c0: d732 2ebd 6639 08bd 0bdf 16bd ef02 72bd
000001d0: a642 edbc ef59 dabc 165e 41bd 1f7d 39bd
000001e0: cde5 72bd c0a0 a6bd cc8c 59bd 84b4 62bd
000001f0: a18e 05bd 10fb 90bd 339d 60bd f721 31bd

bn3.running_mean f4 [128]
0.15845042 -0.302704 -0.13235898 -0.40055394 0.14092937 -0.17985888 -0.4654348 1.226222
-0.22691938 -0.012412314 -0.21687202 0.31114912 -0.24142435 -0.2345657 -0.21765435 0.51895463
-0.3946439 -0.79705673 0.027445922 0.21783485 0.3228507 0.09202703 -0.16102688 -0.1661319
-0.18506788 0.06185587 0.2207705 0.15179338 0.06900554 -0.2629597 0.32197276 0.30366766
0.19579218 -0.76381385 0.7743841 0.51858824 -0.2712758 -0.3468043 0.06603796 0.2484445
0.44483495 0.16852841 -0.26758173 -0.021312192 0.32990822 -0.2662921 -0.14808038 0.26627615
-0.46203592 0.19735204 0.72246546 0.22591515 0.01025382 0.82410496 -0.13918369 -0.16839197
0.059039075 -0.32675484 0.15023051 -0.48321038 -0.23701249 -0.035366327 0.4569129 0.34191218
0.6900009 -0.16891795 0.37940884 -0.053166565 0.27454233 0.38348538 0.2179258 0.029241746
-0.18689996 0.30463824 0.33565626 0.513506 0.078485295 0.12033729 -0.16222784 -0.4804575
0.057086155 0.7142581 -0.34696105 0.66222596 -0.20275751 -0.10398245 -0.19449036 -0.22872205
0.7767718 0.0925538 -0.24787901 0.08773896 -0.60223633 -0.10661814 -0.18958257 0.051088616
-0.16210702 -0.100546636 0.0980799 -0.27791092 -0.08086343 -0.15439051 -0.08738247 -0.34443375
0.35357505 -0.11359676 -0.2941337 -0.07872961 -0.40298116 -0.04716216 0.44478422 -0.32228476
0.16894385 -0.118507855 0.0006933615 -0.09258163 0.71149087 0.0901979 0.32776308 0.42255023
0.08887476 -0.14541756 0.33469808 -0.5313149 0.4844279 -0.44208074 0.28653932 0.22628435
00000000: d440 223e 05fc 9abe 1d89 07be 6815 cdbe
00000010: ca4f 103e ed2c 38be 784d eebe d8f4 9c3f
00000020: 8e5d 68be 055d 4bbc b313 5ebe f04e 9f3e
00000030: f237 77be fe31 70be c8e0 5ebe 36da 043f
00000040: c40e cabe e90b 4cbf 45d6 e03c 1910 5f3e
00000050: b04c a53e ab78 bc3d 3be4 24be 7b1e 2abe
00000060: 6f82 3dbe 955c 7d3d a911 623e b96f 1b3e
00000070: c752 8d3d a7a2 86be 9dd9 a43e 547a 9b3e
00000080: bf7d 483e 4e89 43bf 093e 463f 33c2 043f
00000090: a9e4 8abe 5590 b1be e93e 873d 3c68 7e3e
000000a0: 68c1 e33e b692 2c3e 7900 89be e896 aebc
000000b0: bbe9 a83e 7057 88be 62a2 17be 5955 883e
000000c0: f98f ecbe a716 4a3e 7ff3 383f 4d56 673e
000000d0: a3ff 273c 8bf8 523f 2b86 0ebe f26e 2cbe
000000e0: f5d2 713d 694c a7be 07d6 193e 5a67 f7be
000000f0: 67b3 72be 48dc 10bd 7df0 e93e 1d0f af3e
00000100: e6a3 303f d4f8 2cbe e041 c23e 2fc5 59bd
00000110: d090 8c3e 3258 c43e f127 5f3e 638c ef3c
00000120: b462 3fbe 8bf9 9b3e 23db ab3e 2175 033f
00000130: e6bc a03d 6673 f63d 0e1f 26be 87fe f5be
00000140: 2cd3 693d 9ed9 363f e1a4 b1be a487 293f
00000150: aa9f 4fbe c0f4 d4bd 7b28 47be 1d36 6abe
00000160: 84da 463f d98c bd3d ffd3 7dbe 7cb0 b33d
00000170: 292c 1abf 9d5a dabd ef21 42be 4c42 513d
00000180: 62ff 25be 65eb cdbd 1dde c83d 574a 8ebe
00000190: ba9b a5bd 8c18 1ebe 95f5 b2bd 9f59 b0be
000001a0: ca07 b53e 6ba5 e8bd b198 96be fd3c a1bd
000001b0: 8c53 cebe 1c2d 41bd c2ba e33e 8202 a5be
000001c0: 9eff 2c3e 3fb4 f2bd b4c2 353a 709b bdbd
000001d0: 4424 363f adb9 b83d 90d0 a73e 8158 d83e
000001e0: f803 b63d 57e8 14be 8c5d ab3e 4104 08bf
000001f0: ef06 f83e 6858 e2be 48b5 923e 16b7 673e

bn3.running_var f4 [128]
0.122700036 0.115085974 0.17755537 0.19049129 0.14760047 0.18283753 0.20246702 0.12940213
0.2817015 0.18987823 0.14174654 0.15737396 0.18565565 0.13332166 0.31479326 0.2575254
0.17941043 0.13608302 0.21433824 0.09058957 0.11760614 0.24686854 0.20594707 0.14078851
0.19187988 0.18546994 0.28663495 0.2838296 0.10081631 0.15847975 0.18328412 0.15485357
0.1678394 0.30053613 0.07236803 0.08840067 0.15351072 0.2946721 0.15960653 0.15583324
0.097129494 0.21380347 0.13971762 0.18593827 0.22499324 0.20318054 0.26406172 0.089839585
0.18603803 0.10931963 0.17453434 0.32200807 0.24574281 0.2138552 0.1935013 0.16105232
0.19989489 0.19749942 0.12304318 0.1605357 0.14750592 0.12587772 0.14053924 0.20686243
0.08513998 0.18242688 0.17125228 0.316185 0.11570995 0.10862634 0.10962167 0.15910871
0.12735432 0.18025015 0.24868329 0.15938367 0.21320695 0.18264195 0.16182216 0.20185494
0.16439979 0.077076785 0.17937177 0.119069144 0.16281275 0.13841632 0.12709756 0.25970212
0.06837682 0.1760581 0.20852438 0.20630439 0.13398477 0.118218504 0.13773438 0.14816606
0.22148007 0.15110157 0.17740731 0.18635552 0.14406884 0.10598811 0.1306217 0.16391179
0.16120003 0.2550936 0.24909638 0.20500179 0.20624782 0.23965949 0.17109165 0.18177333
0.24804066 0.11624485 0.20243725 0.20728499 0.15378247 0.114065915 0.20072268 0.13997315
0.19839692 0.26038778 0.10449125 0.24809381 0.1698599 0.18930225 0.13108584 0.2014886
00000000: 284a fb3d 32b2 eb3d 13d1 353e 2610 433e
00000010: 9424 173e c339 3b3e 8453 4f3e fe81 043e
00000020: 2e3b 903e 706f 423e 0126 113e a426 213e
00000030: 841c 3e3e 7985 083e 952c a13e 5fda 833e
00000040: 5eb7 373e 5959 0b3e 7c7b 5b3e 0687 b93d
00000050: 7ddb f03d 1bcb 7c3e cae3 523e dd2a 103e
00000060: 297c 443e d5eb 3d3e d1c1 923e 1d52 913e
00000070: c878 ce3d 8448 223e d5ae 3b3e ef91 1e3e
00000080: 17de 2b3e dfdf 993e b135 943d 690b b53d
00000090: ea31 1d3e 43df 963e e56f 233e c092 1f3e
000000a0: d4eb c63d 4cef 5a3e 2312 0f3e 9a66 3e3e
000000b0: a164 663e 8f0e 503e 1933 873e d1fd b73d
000000c0: c180 3e3e f8e2 df3d 21b9 323e 3ede a43e
000000d0: 01a4 7b3e dcfc 5a3e 3425 463e e6ea 243e
000000e0: 3fb1 4c3e 4a3d 4a3e 10fe fb3d 7863 243e
000000f0: cb0b 173e 17e6 003e 85e9 0f3e bfd3 533e
00000100: df5d ae3d 1dce 3a3e c25c 2f3e 00e3 a13e
00000110: 57f9 ec3d 7d77 de3d 5381 e03d 65ed 223e
00000120: 2c69 023e 7f93 383e d5a6 7e3e 7935 233e
00000130: ec52 5a3e 7e06 3b3e b5b4 253e 10b3 4e3e
00000140: 6b58 283e 6fda 9d3d 3cad 373e 86da f33d
00000150: 63b8 263e 02bd 0d3e dd25 023e adf7 843e
00000160: 2509 8c3d 9348 343e 6a87 553e 7541 533e
00000170: 4e33 093e 8b1c f23d 3e0a 0d3e d8b8 173e
00000180: accb 623e 5fba 1a3e 43aa 353e fbd3 3e3e
00000190: c886 133e 4b10 d93d b2c1 053e 7ed8 273e
000001a0: 9f11 253e a19b 823e 1f13 7f3e fdeb 513e
000001b0: a132 533e 4c69 753e a632 2f3e ca22 3a3e
000001c0: 5ffe 7d3e c811 ee3d b64b 4f3e 8442 543e
000001d0: 2779 1d3e 649b e93d 3f8a 4d3e 1f55 0f3e
000001e0: 9028 4b3e 8c51 853e 82ff d53d 4e0c 7e3e
000001f0: c1ef 2d3e 73d8 413e 5e3b 063e 0753 4e3e
